…
.894393,"end_time":"2025-04-25T03:39:30.709802","exception":false,"start_time":"2025-04-25T03:29:38.815409","status":"completed"},"tags":[]},"outputs":[{"name":"stdout","output_type":"stream","text":["Classes: ['B-FM', 'Barker', 'CPFSK', 'DSB-AM', 'GFSK', 'LFM', 'Rect', 'SSB-AM']\n","Number of classes: 8\n","Training samples: 5120, Validation samples: 1280\n","----------------------------------------------------------------\n","        Layer (type)               Output Shape         Param #\n","================================================================\n","            Conv2d-1           [-1, 32, 64, 64]             864\n","       BatchNorm2d-2           [-1, 32, 64, 64]              64\n","              ReLU-3           [-1, 32, 64, 64]               0\n","          Identity-4           [-1, 32, 64, 64]               0\n","            Conv2d-5           [-1, 32, 64, 64]           1,024\n","       BatchNorm2d-6           [-1, 32, 64, 64]              64\n","              ReLU-7           [-1, 32, 64, 64]               0\n","            Conv2d-8           [-1, 32, 64, 64]           4,608\n","       BatchNorm2d-9           [-1, 32, 64, 64]              64\n","             ReLU-10           [-1, 32, 64, 64]               0\n","           Conv2d-11           [-1, 32, 64, 64]           1,024\n","      BatchNorm2d-12           [-1, 32, 64, 64]              64\n","AdaptiveAvgPool2d-13             [-1, 32, 1, 1]               0\n","           Conv2d-14              [-1, 4, 1, 1]             128\n","             ReLU-15              [-1, 4, 1, 1]               0\n","           Conv2d-16             [-1, 32, 1, 1]             128\n","AdaptiveMaxPool2d-17             [-1, 32, 1, 1]               0\n","           Conv2d-18              [-1, 4, 1, 1]             128\n","             ReLU-19              [-1, 4, 1, 1]               0\n","           Conv2d-20             [-1, 32, 1, 1]             128\n"," ChannelAttention-21             [-1, 32, 1, 1]               0\n","           Conv2d-22            [-1, 1, 64, 64]              98\n"," SpatialAttention-23            [-1, 1, 64, 64]               0\n","             CBAM-24           [-1, 32, 64, 64]               0\n","          Dropout-25           [-1, 32, 64, 64]               0\n","     ResidualCBAM-26           [-1, 32, 64, 64]               0\n","         Identity-27           [-1, 32, 64, 64]               0\n","           Conv2d-28           [-1, 32, 64, 64]           1,024\n","      BatchNorm2d-29           [-1, 32, 64, 64]              64\n","             ReLU-30           [-1, 32, 64, 64]               0\n","           Conv2d-31           [-1, 32, 64, 64]           4,608\n","      BatchNorm2d-32           [-1, 32, 64, 64]              64\n","             ReLU-33           [-1, 32, 64, 64]               0\n","           Conv2d-34           [-1, 32, 64, 64]           1,024\n","      BatchNorm2d-35           [-1, 32, 64, 64]              64\n","AdaptiveAvgPool2d-36             [-1, 32, 1, 1]               0\n","           Conv2d-37              [-1, 4, 1, 1]             128\n","             ReLU-38              [-1, 4, 1, 1]               0\n","           Conv2d-39             [-1, 32, 1, 1]             128\n","AdaptiveMaxPool2d-40             [-1, 32, 1, 1]               0\n","           Conv2d-41              [-1, 4, 1, 1]             128\n","             ReLU-42              [-1, 4, 1, 1]               0\n","           Conv2d-43             [-1, 32, 1, 1]             128\n"," ChannelAttention-44             [-1, 32, 1, 1]               0\n","           Conv2d-45            [-1, 1, 64, 64]              98\n"," SpatialAttention-46            [-1, 1, 64, 64]               0\n","             CBAM-47           [-1, 32, 64, 64]               0\n","          Dropout-48           [-1, 32, 64, 64]               0\n","     ResidualCBAM-49           [-1, 32, 64, 64]               0\n","AdaptiveAvgPool2d-50            [-1, 32, 1, 64]               0\n","           Conv2d-51            [-1, 16, 1, 64]           1,536\n","AdaptiveAvgPool2d-52            [-1, 32, 64, 1]               0\n","           Conv2d-53            [-1, 16, 64, 1]           1,536\n","          Sigmoid-54           [-1, 32, 64, 64]               0\n"," MultiScaleModule-55           [-1, 32, 64, 64]               0\n","           Conv2d-56           [-1, 64, 32, 32]           2,048\n","         Identity-57           [-1, 64, 32, 32]               0\n","           Conv2d-58           [-1, 64, 32, 32]           4,096\n","      BatchNorm2d-59           [-1, 64, 32, 32]             128\n","             ReLU-60           [-1, 64, 32, 32]               0\n","           Conv2d-61           [-1, 64, 32, 32]           9,216\n","      BatchNorm2d-62           [-1, 64, 32, 32]             128\n","             ReLU-63           [-1, 64, 32, 32]               0\n","           Conv2d-64           [-1, 64, 32, 32]           4,096\n","      BatchNorm2d-65           [-1, 64, 32, 32]             128\n","AdaptiveAvgPool2d-66             [-1, 64, 1, 1]               0\n","           Conv2d-67              [-1, 8, 1, 1]             512\n","             ReLU-68              [-1, 8, 1, 1]               0\n","           Conv2d-69             [-1, 64, 1, 1]             512\n","AdaptiveMaxPool2d-70             [-1, 64, 1, 1]               0\n","           Conv2d-71              [-1, 8, 1, 1]             512\n","             ReLU-72              [-1, 8, 1, 1]               0\n","           Conv2d-73             [-1, 64, 1, 1]             512\n"," ChannelAttention-74             [-1, 64, 1, 1]               0\n","           Conv2d-75            [-1, 1, 32, 32]              98\n"," SpatialAttention-76            [-1, 1, 32, 32]               0\n","             CBAM-77           [-1, 64, 32, 32]               0\n","          Dropout-78           [-1, 64, 32, 32]               0\n","     ResidualCBAM-79           [-1, 64, 32, 32]               0\n","         Identity-80           [-1, 64, 32, 32]               0\n","           Conv2d-81           [-1, 64, 32, 32]           4,096\n","      BatchNorm2d-82           [-1, 64, 32, 32]             128\n","             ReLU-83           [-1, 64, 32, 32]               0\n","           Conv2d-84           [-1, 64, 32, 32]           9,216\n","      BatchNorm2d-85           [-1, 64, 32, 32]             128\n","             ReLU-86           [-1, 64, 32, 32]               0\n","           Conv2d-87           [-1, 64, 32, 32]           4,096\n","      BatchNorm2d-88           [-1, 64, 32, 32]             128\n","AdaptiveAvgPool2d-89             [-1, 64, 1, 1]               0\n","           Conv2d-90              [-1, 8, 1, 1]             512\n","             ReLU-91              [-1, 8, 1, 1]               0\n","           Conv2d-92             [-1, 64, 1, 1]             512\n","AdaptiveMaxPool2d-93             [-1, 64, 1, 1]               0\n","           Conv2d-94              [-1, 8, 1, 1]             512\n","             ReLU-95              [-1, 8, 1, 1]               0\n","           Conv2d-96             [-1, 64, 1, 1]             512\n"," ChannelAttention-97             [-1, 64, 1, 1]               0\n","           Conv2d-98            [-1, 1, 32, 32]              98\n"," SpatialAttention-99            [-1, 1, 32, 32]               0\n","            CBAM-100           [-1, 64, 32, 32]               0\n","         Dropout-101           [-1, 64, 32, 32]               0\n","    ResidualCBAM-102           [-1, 64, 32, 32]               0\n","AdaptiveAvgPool2d-103            [-1, 64, 1, 32]               0\n","          Conv2d-104            [-1, 32, 1, 32]           6,144\n","AdaptiveAvgPool2d-105            [-1, 64, 32, 1]               0\n","          Conv2d-106            [-1, 32, 32, 1]           6,144\n","         Sigmoid-107           [-1, 64, 32, 32]               0\n","MultiScaleModule-108           [-1, 64, 32, 32]               0\n","          Conv2d-109          [-1, 128, 16, 16]           8,192\n","        Identity-110          [-1, 128, 16, 16]               0\n","          Conv2d-111          [-1, 128, 16, 16]          16,384\n","     BatchNorm2d-112          [-1, 128, 16, 16]             256\n","            ReLU-113          [-1, 128, 16, 16]               0\n","          Conv2d-114          [-1, 128, 16, 16]          18,432\n","     BatchNorm2d-115          [-1, 128, 16, 16]             256\n","            ReLU-116          [-1, 128, 16, 16]               0\n","          Conv2d-117          [-1, 128, 16, 16]          16,384\n","     BatchNorm2d-118          [-1, 128, 16, 16]             256\n","AdaptiveAvgPool2d-119            [-1, 128, 1, 1]               0\n","          Conv2d-120             [-1, 16, 1, 1]           2,048\n","            ReLU-121             [-1, 16, 1, 1]               0\n","          Conv2d-122            [-1, 128, 1, 1]           2,048\n","AdaptiveMaxPool2d-123            [-1, 128, 1, 1]               0\n","          Conv2d-124             [-1, 16, 1, 1]           2,048\n","            ReLU-125             [-1, 16, 1, 1]               0\n","          Conv2d-126            [-1, 128, 1, 1]           2,048\n","ChannelAttention-127            [-1, 128, 1, 1]               0\n","          Conv2d-128            [-1, 1, 16, 16]              98\n","SpatialAttention-129            [-1, 1, 16, 16]               0\n","            CBAM-130          [-1, 128, 16, 16]               0\n","         Dropout-131          [-1, 128, 16, 16]               0\n","    ResidualCBAM-132          [-1, 128, 16, 16]               0\n","        Identity-133          [-1, 128, 16, 16]               0\n","          Conv2d-134          [-1, 128, 16, 16]          16,384\n","     BatchNorm2d-135          [-1, 128, 16, 16]             256\n","            ReLU-136          [-1, 128, 16, 16]               0\n","          Conv2d-137          [-1, 128, 16, 16]          18,432\n","     BatchNorm2d-138          [-1, 128, 16, 16]             256\n","            ReLU-139          [-1, 128, 16, 16]               0\n","          Conv2d-140          [-1, 128, 16, 16]          16,384\n","     BatchNorm2d-141          [-1, 128, 16, 16]             256\n","AdaptiveAvgPool2d-142            [-1, 128, 1, 1]               0\n","          Conv2d-143             [-1, 16, 1, 1]           2,048\n","            ReLU-144             [-1, 16, 1, 1]               0\n","          Conv2d-145            [-1, 128, 1, 1]           2,048\n","AdaptiveMaxPool2d-146            [-1, 128, 1, 1]               0\n","          Conv2d-147             [-1, 16, 1, 1]           2,048\n","            ReLU-148             [-1, 16, 1, 1]               0\n","          Conv2d-149            [-1, 128, 1, 1]           2,048\n","ChannelAttention-150            [-1, 128, 1, 1]               0\n","          Conv2d-151            [-1, 1, 16, 16]              98\n","SpatialAttention-152            [-1, 1, 16, 16]               0\n","            CBAM-153          [-1, 128, 16, 16]               0\n","         Dropout-154          [-1, 128, 16, 16]               0\n","    ResidualCBAM-155          [-1, 128, 16, 16]               0\n","AdaptiveAvgPool2d-156           [-1, 128, 1, 16]               0\n","          Conv2d-157            [-1, 64, 1, 16]          24,576\n","AdaptiveAvgPool2d-158           [-1, 128, 16, 1]               0\n","          Conv2d-159            [-1, 64, 16, 1]          24,576\n","         Sigmoid-160          [-1, 128, 16, 16]               0\n","MultiScaleModule-161          [-1, 128, 16, 16]               0\n","AdaptiveAvgPool2d-162            [-1, 128, 1, 1]               0\n","          Linear-163                   [-1, 64]           8,256\n","            ReLU-164                   [-1, 64]               0\n","         Dropout-165                   [-1, 64]               0\n","          Linear-166                    [-1, 8]             520\n","================================================================\n","Total params: 259,764\n","Trainable params: 259,764\n","Non-trainable params: 0\n","----------------------------------------------------------------\n","Input size (MB): 0.19\n","Forward/backward pass size (MB): 49.58\n","Params size (MB): 0.99\n","Estimated Total Size (MB): 50.75\n","----------------------------------------
…
